…
e unless they are explicitly allowlisted by the user via `torch.serialization.add_safe_globals`. We recommend you start setting `weights_only=True` for any use case where you don't have full control of the loaded file. Please open an issue on GitHub for any issues related to this experimental feature.
  ckpt = torch.load(weights, map_location='cpu')  # load checkpoint to CPU to avoid CUDA memory leak
Overriding model.yaml nc=80 with nc=6

                 from  n    params  module                                  arguments
[34m[1mactivation:[0m nn.SiLU()
  0                -1  1         0  models.common.Silence                   []
  1                -1  1      1856  models.common.Conv                      [3, 64, 3, 2]
  2                -1  1     73984  models.common.Conv                      [64, 128, 3, 2]
  3                -1  1    212864  models.common.RepNCSPELAN4              [128, 256, 128, 64, 1]
  4                -1  1    590336  models.common.Conv                      [256, 256, 3, 2]
  5                -1  1    847616  models.common.RepNCSPELAN4              [256, 512, 256, 128, 1]
  6                -1  1    581241  models.common.ZSPA_NET                  [512, 512, 256]
  7                -1  1   2360320  models.common.Conv                      [512, 512, 3, 2]
  8                -1  1   2857472  models.common.RepNCSPELAN4              [512, 512, 512, 256, 1]
  9                -1  1    581241  models.common.ZSPA_NET                  [512, 512, 512]
 10                -1  1   2360320  models.common.Conv                      [512, 512, 3, 2]
 11                -1  1   2857472  models.common.RepNCSPELAN4              [512, 512, 512, 256, 1]
 12                -1  1    581241  models.common.ZSPA_NET                  [512, 512, 512]
 13                -1  1    656896  models.common.SPPELAN                   [512, 512, 256]
 14                -1  1         0  torch.nn.modules.upsampling.Upsample    [None, 2, 'nearest']
 15           [-1, 9]  1         0  models.common.Concat                    [1]
 16                -1  1   3119616  models.common.RepNCSPELAN4              [1024, 512, 512, 256, 1]
 17                -1  1         0  torch.nn.modules.upsampling.Upsample    [None, 2, 'nearest']
 18           [-1, 6]  1         0  models.common.Concat                    [1]
 19                -1  1    912640  models.common.RepNCSPELAN4              [1024, 256, 256, 128, 1]
 20                -1  1    590336  models.common.Conv                      [256, 256, 3, 2]
 21          [-1, 16]  1         0  models.common.Concat                    [1]
 22                -1  1   2988544  models.common.RepNCSPELAN4              [768, 512, 512, 256, 1]
 23                -1  1   2360320  models.common.Conv                      [512, 512, 3, 2]
 24          [-1, 13]  1         0  models.common.Concat                    [1]
 25                -1  1   3119616  models.common.RepNCSPELAN4              [1024, 512, 512, 256, 1]
 26                 5  1    131328  models.common.CBLinear                  [512, [256]]
 27                 8  1    393984  models.common.CBLinear                  [512, [256, 512]]
 28                11  1    656640  models.common.CBLinear                  [512, [256, 512, 512]]
 29                 0  1      1856  models.common.Conv                      [3, 64, 3, 2]
 30                -1  1     73984  models.common.Conv                      [64, 128, 3, 2]
 31                -1  1    212864  models.common.RepNCSPELAN4              [128, 256, 128, 64, 1]
 32                -1  1    590336  models.common.Conv                      [256, 256, 3, 2]
 33  [26, 27, 28, -1]  1         0  models.common.CBFuse                    [[0, 0, 0]]
 34                -1  1    847616  models.common.RepNCSPELAN4              [256, 512, 256, 128, 1]
 35                -1  1   2360320  models.common.Conv                      [512, 512, 3, 2]
 36      [27, 28, -1]  1         0  models.common.CBFuse                    [[1, 1]]
 37                -1  1   2857472  models.common.RepNCSPELAN4              [512, 512, 512, 256, 1]
 38                -1  1   2360320  models.common.Conv                      [512, 512, 3, 2]
 39          [28, -1]  1         0  models.common.CBFuse                    [[2]]
 40                -1  1   2857472  models.common.RepNCSPELAN4              [512, 512, 512, 256, 1]
 41[34, 37, 40, 19, 22, 25]  1  21554372  models.yolo.DualDDetect                 [6, [512, 512, 512, 256, 512, 512]]
ZSPA-Net summary: 1023 layers, 62552495 parameters, 62552463 gradients, 275.4 GFLOPs

Transferred 1496/1496 items from /kaggle/input/non/other/default/1/last.pt
[34m[1mAMP: [0mchecks passed âœ…
[34m[1moptimizer:[0m SGD(lr=0.01) with parameter groups 242 weight(decay=0.0), 271 weight(decay=0.0005), 257 bias
…
